…
        "colab": {
          "base_uri": "https://localhost:8080/"
        },
        "id": "vPKaVghYh9Km",
        "outputId": "89823f7b-86ff-4d6b-818c-ba1b86fd3445"
      },
      "outputs": [
        {
          "output_type": "stream",
          "name": "stdout",
          "text": [
            "Model: \"sequential\"\n",
            "_________________________________________________________________\n",
            " Layer (type)                Output Shape              Param #   \n",
            "=================================================================\n",
            " rescaling_1 (Rescaling)     (None, 180, 180, 3)       0         \n",
            "                                                                 \n",
            " conv2d (Conv2D)             (None, 180, 180, 16)      448       \n",
            "                                                                 \n",
            " max_pooling2d (MaxPooling2D  (None, 90, 90, 16)       0         \n",
            " )                                                               \n",
            "                                                                 \n",
            " conv2d_1 (Conv2D)           (None, 90, 90, 32)        4640      \n",
            "                                                                 \n",
            " max_pooling2d_1 (MaxPooling  (None, 45, 45, 32)       0         \n",
            " 2D)                                                             \n",
            "                                                                 \n",
            " conv2d_2 (Conv2D)           (None, 45, 45, 64)        18496     \n",
            "                                                                 \n",
            " max_pooling2d_2 (MaxPooling  (None, 22, 22, 64)       0         \n",
            " 2D)                                                             \n",
            "                                                                 \n",
            " flatten (Flatten)           (None, 30976)             0         \n",
            "                                                                 \n",
            " dense (Dense)               (None, 128)               3965056   \n",
            "                                                                 \n",
            " dense_1 (Dense)             (None, 4)                 516       \n",
            "                                                                 \n",
            "=================================================================\n",
            "Total params: 3,989,156\n",
            "Trainable params: 3,989,156\n",
            "Non-trainable params: 0\n",
            "_________________________________________________________________\n"
          ]
        }
…
